oracle_model.onnx (onnx, 13941 bytes, 3 tensors)

conv1.bias f4 [12]
-0.11925499 -0.039363474 -0.11931471 0.12426471 -0.006095941 0.13866207 -0.083112285 -0.028614253
-0.039040282 -0.12002535 -0.106433354 -0.16631782
00000000: f63b f4bd 983b 21bd 455b f4bd 7f7e fe3d
00000010: 76c0 c7bb 6efd 0d3e c636 aabd 7068 eabc
00000020: b4e8 1fbd dacf f5bd bbf9 d9bd 384f 2abe

conv2.bias f4 [24]
0.18236253 -0.027837608 0.05974907 -0.09401867 0.0432679 0.23586975 -0.16113627 0.013603804
0.017412264 -0.032648887 -0.026634252 -0.15360804 -0.07965112 0.120410085 -0.01247323 -0.061643545
-0.078314684 0.04078593 0.072900966 0.061790198 -0.04591298 0.005636471 -0.002812646 0.17791618
00000000: 3ebd 3a3e b20b e4bc 71bb 743d dc8c c0bd
00000010: ae39 313d d787 713e e800 25be 7de2 5e3c
00000020: 2aa4 8e3c d7ba 05bd 1330 dabc 6d4b 1dbe
00000030: 2020 a3bd 9099 f63d 855c 4cbc f17d 7cbd
00000040: 7363 a0bd 260f 273d 1a4d 953d b817 7d3d
00000050: 400f 3cbd 25b2 b83b 5f54 38bb a92f 363e

full3.bias f4 [3]
0.2994202 -0.15817538 -0.056714848
00000000: 9b4d 993e baf8 21be d44d 68bd
